lunarlander_PPO/ppo_lunarlander_final.pth (torch, 24081 bytes, 7 tensors)

fc_shared.0.weight f4 [64, 8]
0.034877203 1.1154438 -0.57073796 -0.8444441 -0.0061090924 -0.17169705 0.15620723 0.0973681
0.71795595 -0.79241467 0.4010507 -0.8842981 0.27179196 0.18496995 0.13651098 0.3050426
1.549217 1.0322194 0.13030022 -0.869807 0.11485032 0.7712258 -0.6792808 0.02720315
0.08226798 -0.06629934 0.58009535 -0.5111052 1.4745723 -0.47951585 0.21609658 -0.25522557
-0.06665009 -0.13056633 -1.6152185 -0.09381759 -0.9744779 0.13910712 0.24360442 -0.5213066
0.6075919 0.2524272 0.2642634 -0.12126851 0.30770054 -0.2013673 0.49001062 0.86806667
-0.80763966 -0.05789425 -0.98143137 -0.40958402 1.2881691 0.7552187 0.31882647 0.21645525
0.8554214 -0.3658325 0.6063938 -1.0949188 -0.7008399 -0.65925366 0.19326118 -0.06383647
0.4451155 -0.20967893 0.5326283 -0.9272251 -1.0245329 -1.6639524 0.94954765 0.6839026
0.58965766 -0.932611 -0.7454852 0.8390957 0.081486 0.04686391 0.614994 0.12762265
-0.33993104 0.13560243 1.821713 -0.15362509 0.44453532 -0.29415214 -0.03783009 -0.09511432
-0.7646394 1.5123073 -0.5826027 0.4458981 0.44555905 0.58857924 -0.37128323 -0.2162904
1.0425788 -0.16271351 0.27249017 -0.27598396 0.29649678 0.8221901 -0.44016188 -0.39034823
0.6488575 -1.5218625 -0.7899152 1.2460814 -0.1364043 0.25643814 0.121484876 -0.16920556
0.39918843 -0.7665417 0.051329076 0.778785 0.296712 0.13618213 -0.3883467 -0.50470495
-0.59143436 -0.09155718 -0.1555657 -0.34592485 -0.23321494 -1.0966488 0.009075507 0.16517358
1.6350615 -0.72409105 0.82760996 -0.1518752 -0.9273094 -0.23943228 -0.019547766 -0.122528486
-0.36145943 -0.6064747 1.8445318 0.5483258 0.9262793 -0.5524893 0.20868239 0.06515004
0.57951677 -0.45365298 1.0617182 1.7391816 0.19004147 0.33758655 0.37520185 -0.00984579
-0.0665099 -1.0407782 0.9281764 0.89503795 0.13476674 0.39507887 -8.6076296e-05 -0.003712005
0.27416402 0.26144052 0.0052930485 0.14112756 3.0863514 -0.2759942 0.030265858 0.7390886
-0.45589814 0.110722914 -0.44584218 1.1248521 0.95462126 0.95828205 -0.32667372 -0.6143753
-0.69652605 -0.35517356 0.87365973 0.43747288 0.5589102 -0.3396872 -0.36157942 0.27458408
1.671705 1.2662841 0.4567124 0.56747013 -0.59170485 0.054145824 -0.080539286 -0.10862234
0.1901681 2.9684312 -0.41336995 -2.0326357 -0.36799374 0.15899733 0.26819915 -0.20853062
-0.6793365 0.23973253 0.2796113 -0.044365175 0.20530938 -1.723187 -0.6298167 -0.43685278
0.2752759 -0.5080688 0.42414805 -0.1965667 -0.8991047 -1.4475865 -0.19319555 0.42810217
0.53877354 -0.23230089 0.0027476875 0.7760335 -1.7277539 1.0823373 -0.38073024 -0.014890814
-0.120021336 -0.35497868 0.33719972 0.18796997 -1.3096936 -2.6118417 -0.62777334 0.10452886
1.752727 0.34816414 -0.092115484 1.0861729 1.3656865 -0.48024458 -0.1705165 0.016423443
0.75710964 -0.37505513 0.7527838 -0.13652293 1.6038564 0.17552574 -0.16971165 0.1285875
-0.26216945 1.5173268 -0.3791113 0.768462 -0.18669327 -0.81613 0.04260617 -0.3825834
00000000: 66db 0e3d ddc6 8e3f e21b 12bf 7d2d 58bf
00000010: c82e c8bb 5ad1 2fbe caf4 1f3e ed68 c73d
00000020: f6cb 373f b0db 4abf 8456 cd3e 5c61 62bf
00000030: 5128 8b3e c368 3d3e 89c9 0b3e 8b2e 9c3e
00000040: be4c c63f c41f 843f 6c6d 053e acab 5ebf
00000050: a536 eb3d 0e6f 453f 59e5 2dbf 24d9 de3c
00000060: 1d7c a83d f3c7 87bd 2181 143f cad7 02bf
00000070: c9be bc3f 1a83 f5be 6c48 5d3e edac 82be
00000080: d87f 88bd 2eb3 05be 7bbf cebf 7023 c0bd
00000090: 6277 79bf 1972 0e3e 7073 793e 5974 05bf
000000a0: 258b 1b3f 233e 813e 884d 873e a05b f8bd
000000b0: ed8a 9d3e 3b33 4ebe ace2 fa3e 9e39 5e3f
000000c0: 79c1 4ebf 8522 6dbd 163f 7bbf ffb4 d1be
000000d0: bae2 a43f 0356 413f 393d a33e 72a6 5d3e
000000e0: e6fc 5a3f 664e bbbe a03c 1b3f 4d26 8cbf
000000f0: 3e6a 33bf d9c4 28bf 42e6 453e b2bc 82bd
00000100: 2ee6 e33e 13b6 56be 545a 083f a05e 6dbf
00000110: e523 83bf 64fc d4bf 8e15 733f 3e14 2f3f
00000120: cef3 163f 98bf 6ebf 1ed8 3ebf face 563f
00000130: 22e2 a63d 5ff4 3f3d 3f70 1d3f 83af 023e
00000140: 710b aebe 5ddb 0a3e e42d e93f e54f 1dbe
00000150: 229a e33e 1c9b 96be b9f3 1abd 4ccb c2bd
00000160: 68bf 43bf 4993 c13f 7325 15bf c14c e43e
00000170: 5120 e43e 21ad 163f d618 bebe 3b7b 5dbe
00000180: 3973 853f 5f9e 26be d583 8b3e c54d 8dbe
00000190: 6dce 973e 0d7b 523f e65c e1be b9db c7be
000001a0: 861b 263f 64cc c2bf e237 4abf 987f 9f3f
000001b0: 92ad 0bbe dc4b 833e 10cd f83d 3944 2dbe
000001c0: 6d62 cc3e 143c 44bf 703e 523d 745e 473f
000001d0: a3ea 973e 5473 0b3e 61d5 c6be 5834 01bf
000001e0: 3e68 17bf 5582 bbbd 9d4c 1fbe 101d b1be
000001f0: e6cf 6ebe fd5e 8cbf 6fb1 143c 4323 293e
00000200: b249 d13f 085e 39bf 3fde 533f 2c85 1bbe
00000210: 2664 6dbf bc2d 75be a322 a0bc 37f0 fabd
00000220: 3611 b9be ed41 1bbf 9e19 ec3f 145f 0c3f
00000230: a420 6d3f f06f 0dbf d6b0 553e 626d 853d
00000240: 365b 143f 3445 e8be 62e6 873f 819d de3f
00000250: 3b9a 423e 25d8 ac3e 751a c03e 3d50 21bc
00000260: 5836 88bd 3838 85bf f89c 6d3f 3521 653f
00000270: 4b00 0a3e c747 ca3e dc83 b4b8 1c45 73bb
00000280: 3a5f 8c3e 88db 853e 4f71 ad3b be83 103e
00000290: c886 4540 1d4f 8dbe 1bf0 f73c e934 3d3f
000002a0: 7b6b e9be b2c2 e23d 6d45 e4be 27fb 8f3f
000002b0: 0f62 743f f951 753f c741 a7be b347 1dbf
000002c0: 884f 32bf 4fd9 b5be 2aa8 5f3f 72fc df3e
000002d0: bd14 0f3f 7beb adbe f020 b9be 4996 8c3e
000002e0: 6efa d53f 9915 a23f 35d6 e93e b945 113f
000002f0: f879 17bf 03c8 5d3d c8f1 a4bd 6475 debd
00000300: 6dbb 423e c7fa 3d40 3aa5 d3be b416 02c0
00000310: ad69 bcbe 32d0 223e 6651 893e 0d89 55be
00000320: ffe8 2dbf 727c 753e 3629 8f3e 42b8 35bd
00000330: 9f3c 523e 6491 dcbf ab3b 21bf 2bab dfbe
00000340: f6f0 8c3e cc10 02bf ef29 d93e c848 49be
00000350: ba2b 66bf 844a b9bf 0ed5 45be 3530 db3e
00000360: 10ed 093f 49e0 6dbe 8c12 343b 22aa 463f
00000370: 0a27 ddbf 078a 8a3f 13ef c2be 9af8 73bc
00000380: bfcd f5bd c4bf b5be 71a5 ac3e 337b 403e
00000390: 0aa4 a7bf 6a28 27c0 c1b5 20bf 3a13 d63d
000003a0: 5c59 e03f 9242 b23e 0ba7 bcbd b707 8b3f
000003b0: d1ce ae3f 9ee2 f5be e19b 2ebe 758a 863c
000003c0: f0d1 413f 3a07 c0be 70b6 403f abcc 0bbe
000003d0: 2b4b cd3f 05bd 333e e4c8 2dbe 71ac 033e
000003e0: 133b 86be c437 c23f e01a c2be edb9 443f
000003f0: 852c 3fbe e5ed 50bf cf83 2e3d f9e1 c3be

fc_shared.0.bias f4 [64]
0.6740938 -0.72330874 -0.3214614 -0.3060141 0.48087394 -0.26102793 0.80175287 0.373956
0.1571272 0.6134909 -0.25255373 0.31906113 0.57192636 -0.5650491 0.31954494 0.48130897
-0.3988676 -0.14912821 0.07704681 -0.6888002 0.5449539 -0.036523245 0.2937306 0.3202617
0.08131097 0.47182474 -0.80877906 0.4224483 -0.82883435 -0.103067964 -0.0855759 0.37795538
0.8330219 0.14756386 0.65794766 0.2584651 0.69950294 -0.22921747 0.3867564 0.18178324
-0.46120277 0.52729243 0.50644743 -0.6447145 0.45408902 -0.39922947 0.26726782 0.7024404
0.3539655 0.63896483 0.16489209 -0.73914117 -0.23823507 0.04802787 -0.37139803 -0.609264
-0.6159878 0.010014403 0.0689109 -0.58768415 -0.23787086 0.40968302 0.6632768 0.12659529
00000000: 6991 2c3f c32a 39bf 9796 a4be e1ad 9cbe
00000010: 1c35 f63e 74a5 85be ad3f 4d3f 2977 bf3e
00000020: f4e5 203e bd0d 1d3f b94e 81be fb5b a33e
00000030: c469 123f 0fa7 10bf 659b a33e 216e f63e
00000040: 6038 ccbe 11b5 18be b8ca 9d3d 3655 30bf
00000050: 1982 0b3f 6699 15bd db63 963e 57f9 a33e
00000060: 5e86 a63d 0393 f13e 250c 4fbf 254b d83e
00000070: 7d2e 54bf 4c15 d3bd 6b42 afbd 5e83 c13e
00000080: ec40 553f fb1a 173e 426f 283f 8a55 843e
00000090: a012 333f fcb7 6abe ef04 c63e 6325 3a3e
000000a0: c522 ecbe a3fc 063f 8aa6 013f 020c 25bf
000000b0: 5b7e e83e ce67 ccbe 54d7 883e 22d3 333f
000000c0: f73a b53e 3393 233f 79d9 283e 5b38 3dbf
000000d0: e5f3 73be dfb8 443d e227 bebe baf8 1bbf
000000e0: 60b1 1dbf 7313 243c 2821 8d3d 7872 16bf
000000f0: 6b94 73be f9c1 d13e 82cc 293f 32a2 013e

fc_shared.2.weight f4 [64, 64]
-0.07867912 0.17797977 -1.4388947 -0.24159011 -0.058618758 0.38073656 -0.3426457 -0.17652288
0.17229056 0.26473996 0.15433656 -0.28621188 -0.6694945 0.07126563 -0.5844171 0.07034708
0.11629632 0.7224135 0.12272918 -0.05085353 0.049774624 0.008262307 0.40599144 -0.86296713
-0.17722385 -0.29693595 0.23591831 0.123870455 0.37557787 -0.07101497 -0.71880656 -0.34916615
0.3238837 0.2181536 -0.50900424 0.9753385 -0.5146957 0.3745314 0.19277266 0.7683679
0.23783994 -0.10580599 -0.2643327 0.14037164 -0.030251589 0.20253576 0.9894005 0.17974997
0.07391676 -0.8911655 0.34408334 0.53685695 -0.18661116 0.07535528 -0.10340066 0.31150404
-0.27839735 -0.0018054892 -0.73983 0.22985682 -0.013327354 -0.16405213 0.09633968 0.43449342
0.28168756 -0.6065255 0.46398717 -0.25254294 0.33000806 -0.11793832 0.47619602 0.24108954
0.43702286 -0.15863578 -0.41624627 0.2667641 0.5777174 0.13562348 -0.17670877 0.31332573
-0.4961176 -0.3394006 0.7213519 -0.018859148 -0.47477755 -0.5465025 -0.22993039 0.3938449
-0.15540655 -0.13121612 -0.7957564 0.074641176 -1.0223428 -0.10534193 -0.21355583 0.21892487
-0.009935915 0.3879049 0.4786067 -0.3562075 0.44259322 -0.06699686 0.01595936 0.034256145
-0.3901981 0.38229722 0.34537438 0.19435565 -0.1837574 -0.23058426 -0.5760669 -0.22833772
-0.54255277 0.5646456 0.36399132 -0.06010917 -0.46991798 0.42589575 -0.32668027 -0.3763041
0.3400448 0.26962104 1.0136383 -0.33110467 -0.22069353 -0.0744048 0.119430736 -0.12294855
-0.07185844 0.75334597 -0.34741706 0.17094286 -0.04233675 0.24005453 -0.29984587 0.09386963
-0.0083260955 -0.21833152 0.25024664 -0.27479964 0.12930936 -0.117213614 -0.06409892 -0.44986278
0.79080254 0.22972101 1.2704725 0.087587364 0.19228038 0.13606648 0.14385061 0.023280725
0.014896614 -0.967888 0.149121 0.21208343 -0.09391074 0.3705626 0.45645937 -0.809332
0.099359915 -1.0570487 -0.061807413 -0.28850082 -0.22831093 -0.35288078 0.08808306 0.98790133
0.04506834 -0.45791778 0.17372671 -0.12869176 -0.108599685 0.19673331 -0.40897316 0.39816883
0.11221944 -0.1562457 -0.80859923 0.4864144 -0.68386775 0.0495642 -0.35704044 0.36402
-0.29908437 -0.7606419 0.43604863 0.67168254 0.56320256 0.030985245 0.04536988 -0.25674352
-0.09853288 -0.19538148 0.9157401 0.34643862 0.24894358 0.16091833 0.20023291 0.08243939
-0.15014969 0.0010152851 -0.70096946 0.12602803 0.51546484 0.11595768 0.749147 0.07801006
-0.42666316 -0.7121061 0.69535476 -0.065230645 0.1798157 -0.036119226 -0.23174329 0.96030134
0.1743786 0.38031378 -0.33825096 -0.5398986 -0.47469476 0.3708964 0.29024237 0.8474083
-0.20160402 0.59068954 0.56202596 -0.9096872 0.37350002 -0.3883405 -0.10174696 -0.40980566
-0.049434815 0.075537354 0.3400822 -0.18896316 0.25234136 -0.3006893 -0.12924957 -0.3031635
0.17420726 0.83710873 0.4757768 -0.5026088 -0.1680771 0.62453973 -0.45266226 -0.24877515
0.09845807 -0.16539402 0.3953823 -0.29396248 -0.08280405 -0.036680568 0.018266113 0.17458026
00000000: 8522 a1bd 5440 363e b42d b8bf 6663 77be
00000010: 391a 70bd e7ef c23e 426f afbe 6ac2 34be
00000020: f06c 303e ff8b 873e 670a 1e3e 5d8a 92be
00000030: fe63 2bbf b7f3 913d 5c9c 15bf 2112 903d
00000040: c42c ee3d 17f0 383f 7059 fb3d cb4b 50bd
00000050: 7ae0 4b3d a15e 073c 1cde cf3e 6aeb 5cbf
00000060: 2b7a 35be fd07 98be 9294 713e cbaf fd3d
00000070: be4b c03e 4c70 91bd b503 38bf e8c5 b2be
00000080: 16d4 a53e a863 5f3e 1a4e 02bf c9af 793f
00000090: 19c3 03bf 94c2 bf3e 3266 453e c2b3 443f
000000a0: 508c 733e d0b0 d8bd 9e56 87be 95bd 0f3e
000000b0: 2ed2 f7bc 8965 4f3e 5a49 7d3f 6010 383e
000000c0: ac61 973d 6c23 64bf b12b b03e 756f 093f
000000d0: ff16 3fbe de53 9a3d bac3 d3bd 757d 9f3e
000000e0: 198a 8ebe 2aa6 ecba 8065 3dbf 965f 6b3e
000000f0: f95a 5abc 48fd 27be bd4d c53d ec75 de3e
00000100: 5a39 903e 4145 1bbf ba8f ed3e 4f4d 81be
00000110: d1f6 a83e a589 f1bd f7cf f33e 2de0 763e
00000120: 76c1 df3e 6b71 22be 3b1e d5be 4e95 883e
00000130: 4ae5 133f e2e0 0a3e 25f3 34be 3b6c a03e
00000140: 2003 febe eac5 adbe 85aa 383f 807e 9abc
00000150: 0b16 f3be 96e7 0bbf df72 6bbe 0aa6 c93e
00000160: e522 1fbe 855d 06be b1b6 4bbf 79dd 983d
00000170: 21dc 82bf 83bd d7bd 61ae 5abe d72d 603e
00000180: 3fca 22bc 799b c63e f00b f53e d460 b6be
00000190: 949b e23e a635 89bd 34bd 823c 2c50 0c3d
000001a0: 0cc8 c7be 76bc c33e e9d4 b03e 2b05 473e
000001b0: e62a 3cbe 481e 6cbe 1f79 13bf 5dd1 69be
000001c0: bde4 0abf 9d8c 103f 125d ba3e 0835 76bd
000001d0: 1799 f0be 020f da3e a342 a7be eeaa c0be
000001e0: 5a1a ae3e c50b 8a3e e6be 813f 8d86 a9be
000001f0: 7cfd 61be 8b61 98bd 1a98 f43d 73cc fbbd
00000200: 852a 93bd 48db 403f a6e0 b1be a50b 2f3e
00000210: 4d69 2dbd dbd0 753e 6685 99be b83e c03d
00000220: 2d6a 08bc 4c92 5fbe 5420 803e 8ab2 8cbe
00000230: ac69 043e b10d f0bd 4b46 83bd 6a54 e6be
00000240: 0972 4a3f fc3b 6b3e d89e a23f 0161 b33d
00000250: 26e5 443e 0355 0b3e 934d 133e 38b7 be3c
00000260: ed10 743c 82c7 77bf 2db3 183e 662c 593e
00000270: 4654 c0bd 62ba bd3e 0bb5 e93e 6230 4fbf
00000280: 367d cb3d 5f4d 87bf c529 7dbd 61b6 93be
00000290: 57ca 69be caac b4be e464 b43d 1ae7 7c3f
000002a0: 9499 383d 3374 eabe 6ae5 313e c6c7 03be
000002b0: 8369 debd 7574 493e ee64 d1be c9dc cb3e
000002c0: 4ed3 e53d dffe 1fbe 5c00 4fbf 4f0b f93e
000002d0: f511 2fbf d503 4b3d 01ce b6be d460 ba3e
000002e0: 9621 99be 6db9 42bf c441 df3e 63f3 2b3f
000002f0: 0b2e 103f c5d4 fd3c c4d5 393d e373 83be
00000300: 9bcb c9bd 1512 48be f16d 6a3f 6760 b13e
00000310: 11eb 7e3e c6c7 243e db09 4d3e fcd5 a83d
00000320: d7c0 19be 5113 853a bc72 33bf 7e0d 013e
00000330: 81f5 033f 387b ed3d 19c8 3f3f bdc3 9f3d
00000340: 9873 dabe 964c 36bf c502 323f a597 85bd
00000350: 9b21 383e c1f1 13bd 1d4e 6dbe 4fd6 753f
00000360: 4e90 323e 7db8 c23e 3b2f adbe cb36 0abf
00000370: 310b f3be 22e6 bd3e a69a 943e c0ef 583f
00000380: 4971 4ebe 6e37 173f efe0 0f3f 43e1 68bf
00000390: 653b bf3e 91d4 c6be b660 d0bd 0cd2 d1be
000003a0: 297c 4abd 54b3 9a3d 411f ae3e 8f7f 41be
000003b0: e332 813e f3f3 99be 005a 04be 3f38 9bbe
000003c0: 6363 323e c24c 563f 0499 f33e f8aa 00bf
000003d0: 671c 2cbe d6e1 1f3f 59c3 e7be eabe 7ebe
000003e0: 62a4 c93d 0d5d 29be 8c6f ca3e 4082 96be
000003f0: 2b95 a9bd 5d3e 16bd d1a2 953c 2bc5 323e

fc_shared.2.bias f4 [64]
0.053278882 0.12299752 -0.02441155 -0.09171031 -0.09297736 0.07420132 -0.1966872 0.032808114
-0.16641824 -0.048780285 -0.33854896 -0.17521454 0.12081058 -0.044777468 0.2035354 0.25063413
-0.35391092 -0.090463705 -0.05339028 -0.21991262 0.019099075 0.18525685 -0.07539308 -0.37061185
0.15127735 0.06910728 0.15864576 -0.1466588 -0.06657156 0.11634679 -0.29261342 -0.12683102
0.13125843 0.06139507 0.24231909 0.17578493 0.08641364 0.09900159 0.41773242 -0.017522156
0.1415056 -0.34570676 0.09236049 0.12128153 0.22948503 -0.094445005 0.18475871 -0.012058575
-0.1897077 -0.0476575 -0.23915017 -0.20832169 -0.17646803 0.48124558 -0.09349557 -0.18063162
-0.049351204 -0.2573011 -0.17466569 0.44945624 -0.04700058 0.20067272 -0.21431118 -0.18728374
00000000: f53a 5a3d 20e6 fb3d bbfa c7bc 9dd2 bbbd
00000010: ea6a bebd ddf6 973d 5f68 49be cd61 063d
00000020: 8b69 2abe d6cd 47bd 4a56 adbe 716b 33be
00000030: 8a6b f73d 9468 37bd 956b 503e 1e53 803e
00000040: d033 b5be 0945 b9bd c4af 5abd c630 61be
00000050: aa75 9c3c f9b3 3d3e b067 9abd d6c0 bdbe
00000060: 73e8 1a3e 1e88 8d3d 0974 223e b92d 16be
00000070: ac56 88bd 3a47 ee3d 6dd1 95be fedf 01be
00000080: 9c68 063e 6679 7b3d 7f22 783e f700 343e
00000090: a2f9 b03d 58c1 ca3d 06e1 d53e a08a 8fbc
000000a0: d8e6 103e 7a00 b1be 7f27 bd3d 7362 f83d
000000b0: 20fe 6a3e 626c c1bd 6331 3d3e 5491 45bc
000000c0: bc42 42be 8334 43bd c8e3 74be 4852 55be
000000d0: 09b4 34be d265 f63e 9b7a bfbd 7ff7 38be
000000e0: 7d24 4abd f8bc 83be 90db 32be 211f e63e
000000f0: ae83 40bd 267d 4d3e 6474 5bbe 4fc7 3fbe

fc_actor.weight f4 [4, 64]
0.81218946 -0.5427423 0.27457106 -0.6317435 -0.20696734 0.07247298 0.124109864 0.31154683
0.018689102 -0.5817624 -0.18959007 0.06556608 -0.39945075 -0.07156106 0.93314964 0.3200744
-0.42077813 -0.16858546 0.31998053 -0.4621595 -0.23552434 0.09709328 -0.12099651 0.4507159
-0.25427762 -0.439525 0.05214366 0.31945616 -0.06148393 0.5416132 -0.15338625 0.045578215
-0.10692398 0.22691593 -0.41899964 -0.14281061 0.10610736 -0.005060299 0.08813282 -0.42618725
0.026644526 0.09808821 -0.07942878 -0.41362843 -0.46428674 -0.07359012 0.62421787 0.19034912
-0.22607452 -0.30933738 0.42671126 -0.10285208 0.08277713 0.08454071 0.06323422 0.14610487
0.08991121 0.25283167 -0.0472016 -0.08077602 0.18986067 -0.0037872747 -0.13801864 0.2324481
0.31060654 -0.033867814 0.27521592 0.04589495 -0.78063244 0.7736631 0.49162096 0.32039276
0.4119407 -0.4519613 0.18758138 0.22773825 0.23170695 0.3336341 -0.1678884 -0.11564017
0.09166247 0.6114814 -0.053731356 -0.29073384 0.5665947 -0.010723055 0.25164402 -0.174519
0.027905475 -0.09860077 0.03553154 -0.25105798 0.08941759 -0.22861147 -0.16302848 0.113669
0.0075717014 -0.04343683 -0.15769295 -0.15021965 -0.34757477 0.31542665 -0.18342906 -0.211061
0.0940197 -0.21537036 0.32335046 0.018427553 0.10484355 0.64750016 -0.93313426 -0.2503711
0.29799953 -0.61119455 -0.207471 0.031287227 -0.42607343 -0.6211377 0.16778561 0.13056888
-0.034703944 0.07350657 -0.003930324 0.28186294 -0.10194872 -0.16193621 0.118368715 0.16165948
-0.14370833 0.2707145 0.07155834 0.05709979 0.3429029 -0.3913578 -0.41962048 -0.14781094
-0.41830534 0.6272057 0.0795315 -0.17842172 0.068035305 0.62415606 -0.575281 0.065594696
-0.0032278686 -0.26383242 -0.14206323 0.13734625 -0.20287013 0.25757578 -0.11422057 -0.137507
-0.06414269 -0.17485677 -0.0010066952 -0.2513998 -0.09985596 -0.36742565 -0.091837 0.009844607
0.4146331 0.229348 0.3054989 0.021260891 -0.06965936 0.08340257 0.22566593 -0.03060732
0.3986599 -0.12185125 0.111473106 0.30533904 0.23311895 0.16605721 -0.16590765 -0.11138168
-0.0079338765 1.0811 -0.25702986 0.10256605 -0.13355702 0.13256603 -0.053361457 -0.430941
-0.13653556 -0.05448056 0.15495795 0.14238305 -0.18113115 -0.044779934 -0.12084442 -0.028383842
-0.3277276 0.026706232 -0.27735737 0.024133189 0.2592277 0.19884154 0.092773974 -0.16214451
0.19292064 0.058896344 -0.6744759 -0.11106942 0.084507756 -0.70287824 -0.18464744 0.06504636
0.44241926 -0.35529807 0.2491345 0.36585444 -0.22611941 -0.2048245 -0.05797623 0.044976756
0.17371128 0.3793171 -0.31224674 -0.14890192 -0.05465524 -0.076931074 0.31035033 -0.14191066
-0.1338639 -0.13183895 0.13886623 0.0038038248 -0.017727703 -0.08131603 -0.14120616 0.29356864
-0.17866233 0.22385313 -0.37263644 0.047999352 0.33940193 -0.70393556 0.6303744 0.2525537
-0.23731992 -0.8301414 -0.1669994 -0.21765335 0.18671934 0.43066907 0.061769832 0.06697376
-0.07443849 0.030101685 0.098973796 -0.20593885 0.2585288 -0.06413729 -0.12678723 0.036001507
00000000: a6eb 4f3f 29f1 0abf 9494 8c3e f1b9 21bf
00000010: 3fef 53be b76c 943d 502d fe3d 1183 9f3e
00000020: e319 993c 61ee 14bf e623 42be 8247 863d
00000030: cf84 ccbe 9b8e 92bd e5e2 6e3f cbe0 a33e
00000040: 3b70 d7be aba1 2cbe 7dd4 a33e 2ca0 ecbe
00000050: 4b2d 71be d7d8 c63d 05cd f7bd 3cc4 e63e
00000060: ad30 82be 6c09 e1be 9794 553d c28f a33e
00000070: 93d6 7bbd 2aa7 0a3f 4911 1dbe 39b0 3a3d
00000080: f6fa dabd a65c 683e 1f87 d6be f23c 12be
00000090: d14e d93d ddd0 a5bb fb7e b43d 3735 dabe
000000a0: 9f45 da3c 79e2 c83d 8eab a2bd 1bc7 d3be
000000b0: feb6 edbe 6bb6 96bd becc 1f3f e1ea 423e
000000c0: 1480 67be 7861 9ebe e679 da3e 1ca4 d2bd
000000d0: 0e87 a93d ae23 ad3d f180 813d 849c 153e
000000e0: 5e23 b83d 2773 813e 7756 41bd e66d a5bd
000000f0: d66a 423e ed33 78bb c254 0dbe e006 6e3e
00000100: d207 9f3e fab8 0abd 1ae9 8c3e 58fc 3b3d
00000110: 87d7 47bf c90e 463f beb5 fb3e 850a a43e
00000120: e4e9 d23e 7967 e7be 5515 403e 3734 693e
00000130: 9644 6d3e 17d2 aa3e f0ea 2bbe c1d4 ecbd
00000140: 88b9 bb3d 0c8a 1c3f 6915 5cbd 11db 94be
00000150: 5a0c 113f c1af 2fbc 7cd7 803e 1cb5 32be
00000160: 069a e43c 33ef c9bd 8589 113d ac8a 80be
00000170: 9220 b73d 2019 6abe f0f0 26be 4bcb e83d
00000180: 091c f83b d1ea 31bd 437a 21be 2ed3 19be
00000190: 52f5 b1be 9a7f a13e d4d4 3bbe 6020 58be
000001a0: 678d c03d 0c8a 5cbe 318e a53e 61f5 963c
000001b0: 37b8 d63d 92c2 253f e3e1 6ebf a430 80be
000001c0: 6593 983e 3f77 1cbf 4773 54be 0927 003d
000001d0: 4c26 dabe e102 1fbf fecf 2b3e d9b3 053e
000001e0: b925 0ebd 9d8a 963d f3c9 80bb 5750 903e
000001f0: 7eca d0bd 9bd2 25be 4c6b f23d 108a 253e
00000200: 4728 13be 179b 8a3e 2e8d 923d 78e1 693d
00000210: f890 af3e 0d60 c8be 7fd8 d6be c05b 17be
00000220: 1e2c d6be 8e90 203f 69e1 a23d 2fb4 36be
00000230: 1856 8b3d b1c8 1f3f 9e45 13bf 8356 863d
00000240: a68a 53bb 0b15 87be 0679 11be 7fa4 0c3e
00000250: 30bd 4fbe f9e0 833e 79ec e9bd a3ce 0cbe
00000260: 3e5d 83bd a70d 33be 16f3 83ba 79b7 80be
00000270: 4881 ccbd 371f bcbe 0915 bcbd 464b 213c
00000280: ca4a d43e 34da 6a3e 5a6a 9c3e 522b ae3c
00000290: 91a9 8ebd f7ce aa3d f814 673e 34bc fabc
000002a0: 271d cc3e 268d f9bd 034c e43d 6655 9c3e
000002b0: bcb6 6e3e e70a 2a3e b2e3 29be 141c e4bd
000002c0: 17fd 01bc 7c61 8a3f 6b99 83be 260e d23d
000002d0: 2cc3 08be 64bf 073e 8b91 5abd 4ca4 dcbe
000002e0: facf 0bbe 0227 5fbd 4cad 1e3e ddcc 113e
000002f0: 727a 39be 2a6b 37bd 477d f7bd 3b85 e8bc
00000300: e9cb a7be 07c7 da3c c901 8ebe f7b2 c53c
00000310: 7eb9 843e 1e9d 4b3e 4800 be3d 3609 26be
00000320: fd8c 453e 4b3d 713d 74aa 2cbf 5d78 e3bd
00000330: 6712 ad3d d4ef 33bf 3814 3dbe 0737 853d
00000340: c784 e23e a1e9 b5be 1d1d 7f3e 4651 bb3e
00000350: d98b 67be 84bd 51be 7c78 6dbd 8c39 383d
00000360: 5fe1 313e da35 c23e cede 9fbe bf79 18be
00000370: 2cde 5fbd 0a8e 9dbd 3de6 9e3e 0751 11be
00000380: 9e13 09be ca00 07be f332 0e3e 9749 793b
00000390: b039 91bc 0589 a6bd 5998 10be a14e 963e
000003a0: 42f3 36be c139 653e 34ca bebe f89a 443d
000003b0: 17c6 ad3e 1f35 34bf 3760 213f b84e 813e
000003c0: fe03 73be 2684 54bf e401 2bbe 85e0 5ebe
000003d0: 5b33 3f3e a880 dc3e 5d02 7d3d 8a29 893d
000003e0: 3573 98bd cf97 f63c c6b2 ca3d a2e1 52be
000003f0: e35d 843e 695a 83bd 83d4 01be 5176 133d

fc_actor.bias f4 [4]
0.08181591 -0.038653985 0.46556696 -0.12128666
00000000: 1a8f a73d a453 1ebd cb5e ee3e 2465 f8bd

fc_critic.weight f4 [1, 64]
-2.0859735 2.4480536 -2.027729 2.011834 2.2158866 -3.3600168 5.902352 -2.1645284
5.7325473 2.3607173 2.552795 6.0966167 -2.1773586 -6.428735 2.8453453 -1.8572608
1.8130976 2.8997617 -1.916438 2.5760047 5.9664435 -2.573678 1.6399893 1.9688926
2.557436 1.5052838 -5.6759963 3.1651733 1.4715025 2.1744444 2.0908017 5.82949
-1.3780546 -2.8906226 -5.782488 1.559138 2.1835423 -2.083147 -2.3454976 2.0210063
-1.7007613 5.192131 -5.2784047 -1.7221627 -2.2886865 6.166617 -3.1071217 2.507804
1.8790743 6.0366473 1.8405547 2.540187 2.318708 -2.4468672 -2.182222 1.4698132
2.8862214 -1.5189646 -1.8569926 -5.450382 -3.1385689 1.9805292 1.6133473 -1.8198333
00000000: 9780 05c0 e9ac 1c40 50c6 01c0 e3c1 0040
00000010: 16d1 0d40 840a 57c0 11e0 bc40 a287 0ac0
00000020: 0771 b740 fe15 1740 fe60 2340 7c17 c340
00000030: d859 0bc0 32b8 cdc0 231a 3640 b9ba edbf
00000040: 9513 e83f b295 3940 d74d f5bf 43dd 2440
00000050: 1bed be40 24b7 24c0 2beb d13f ac04 fc3f
00000060: 08ad 2340 24ad c03f c3a1 b5c0 3392 4a40
00000070: 325a bc3f 192a 0b40 b2cf 0540 2f8b ba40
00000080: 1864 b0bf f6ff 38c0 240a b9c0 d591 c73f
00000090: 28bf 0b40 4852 05c0 a21c 16c0 2b58 0140
000000a0: 8cb2 d9bf f025 a640 b1e8 a8c0 d46f dcbf
000000b0: d779 12c0 ed54 c540 15db 46c0 dc7f 2040
000000c0: 8285 f03f 372c c140 4c97 eb3f 6c92 2240
000000d0: b665 1440 7999 1cc0 86a9 0bc0 d722 bc3f
000000e0: dab7 3840 6f6d c2bf efb1 edbf 8869 aec0
000000f0: 50de 48c0 fb81 fd3f 2a82 ce3f 4cf0 e8bf
