lunarlander_DDQN/lunarlander_dqn_cpu.pth (torch, 23141 bytes, 6 tensors)

fc1.weight f4 [64, 8]
000000 80 2d cc be 66 f6 17 3f 5e 9c 8c be af 85 a9 bf
       -0.39878464 0.5936035 -0.2746305 -1.3243922
000010 6a db af 3e 6c 14 a2 3d 76 ad 2c be c8 26 6c 3e
       0.34347087 0.079140514 -0.16863045 0.23061669
000020 9a 5a 4d 3f 25 57 5d 3e 8b e0 a8 3e 08 e5 ba be
       0.8021637 0.21615274 0.32983813 -0.36502862
000030 9d b8 5e bf 85 99 de be ed 11 ae be 67 fe 72 be
       -0.8700045 -0.434765 -0.3399805 -0.2372986
000040 66 78 94 3e 95 ee 31 bf 87 a4 dc 3c 71 7e a2 be
       0.28998107 -0.6950467 0.026933922 -0.31737092
000050 5d 54 96 3e 82 38 82 3c c6 e1 17 3f e4 92 b6 3d
       0.2936124 0.015896086 0.5932888 0.08914736
000060 33 d7 92 3f aa 44 c6 be 96 e6 0b 3e d3 47 8f bf
       1.1471924 -0.38724262 0.1366218 -1.1193794
000070 6a 74 52 bf 66 a0 25 be 04 bd f2 3d dc 4f 74 3d
       -0.82208884 -0.16174468 0.11852458 0.059646472
000080 f6 9f 8a 3e 4e a5 56 3b d7 a0 43 3f 3f e7 64 be
       0.27075166 0.0032752338 0.764173 -0.22353838
000090 d8 77 d8 3f 79 78 2c 3f ce 1c e8 3d 45 f0 5f 3c
       1.6911573 0.67371327 0.11333619 0.013668125
0000a0 15 a3 8f be b3 21 03 bd 06 ab 7a be da cb b4 be
       -0.2805411 -0.03201456 -0.24479303 -0.35311776
0000b0 15 6a 94 3d 5e 28 0e bf 7b 3f 02 3f 56 75 7b 3e
       0.07246796 -0.55530345 0.50878114 0.24556479
0000c0 92 d8 67 be 68 2a 33 3f b7 42 57 3d f5 65 7a bf
       -0.22641209 0.6998658 0.05255386 -0.97811824
0000d0 4f 55 28 3e 85 02 38 3e cf 88 ba 3c 7b 34 9b be
       0.16438793 0.17969711 0.022770314 -0.30313477
0000e0 4c e4 a4 3f da 5a 0e bf 72 b5 29 3f 63 9b 0f bc
       1.2882171 -0.5560738 0.6629249 -0.008765074
0000f0 95 dc 9b 3f 1b a6 22 3f fe cf bd 3e c9 8d c4 3d
       1.2176691 0.63534707 0.37072748 0.09597356
000100 02 db ed bd b3 f5 96 3e 58 ec c2 3f 21 a9 e9 bf
       -0.11614038 0.2948433 1.5228376 -1.8254739
000110 de 08 1b bf 29 8d 3b bd 63 51 60 be 89 08 a8 be
       -0.60560405 -0.045788918 -0.21906047 -0.32819012
000120 88 4a ca be fe 96 35 3f 9b 4c 4c 3e 4c ee 55 bf
       -0.39509988 0.7093352 0.19951098 -0.8356674
000130 3a 2f 1e 3f 77 80 9d be 39 cc 7d 3e 62 1b e1 3d
       0.6179081 -0.30762073 0.24784936 0.10991551
000140 b7 aa 0b 3f bf 74 6b bd 1d 6b 2e 3d a8 53 ec be
       0.54557365 -0.057484385 0.04258262 -0.46157575
000150 b1 b4 05 3f a9 73 a7 b9 d8 05 fa 3e e2 01 24 3e
       0.5222884 -0.00031938896 0.48832583 0.16016343
000160 19 d9 9a be f5 50 83 be ff 34 b0 be 42 d8 79 bf
       -0.30243757 -0.25647703 -0.34415433 -0.9759561
000170 2e db 98 3f fa 8f 50 3f 43 71 3f 3e 52 0d 02 bf
       1.1941888 0.8146969 0.1869555 -0.50801575
000180 3d 0e 6a 3d eb 4b 32 3f 07 be bc bc 49 2d 8e 3f
       0.057142485 0.6964709 -0.02303983 1.110757
000190 57 4a d9 be 64 c9 32 bf 12 79 83 bd a4 8f 1d be
       -0.4243953 -0.6983855 -0.06419577 -0.15386826
0001a0 a4 b5 37 3f 77 6e 6e be 10 d8 73 3c c6 b6 32 3f
       0.71761537 -0.23284326 0.014883056 0.6981014
0001b0 7b 94 37 3e 6a 32 07 3f 5c d5 ea be b0 c5 dc be
       0.17927735 0.528113 -0.45865905 -0.43119574
0001c0 23 55 66 3f fe 92 25 be 59 d2 92 be 19 48 6a bf
       0.8997366 -0.16169354 -0.28676108 -0.9151626
0001d0 c8 47 2d be de a0 80 3f 2c f7 e1 3e 54 76 4b 3e
       -0.16921914 1.0049093 0.4413389 0.19869357
0001e0 95 4d 65 3e 42 c0 af be b1 c7 82 3f 7e 50 60 3e
       0.22392876 -0.3432637 1.0217191 0.21905705
0001f0 34 53 94 be 78 da 1a bf da e8 76 3e 21 95 e8 3e
       -0.2896973 -0.60489607 0.24112263 0.45426276
000200 f1 15 52 3d 10 08 41 3d 28 4a 01 bf 79 61 bd bc
       0.051290456 0.04712683 -0.5050378 -0.023117768
000210 ca 00 ae 3e 82 20 15 bf 8e 0a fb 3e 0d 11 f3 3e
       0.33984977 -0.5825273 0.4903149 0.47473946
000220 58 35 dd 3e 14 5f 22 3e 58 fe 00 3f 30 0e 8f 3e
       0.4320476 0.15856582 0.503881 0.27940512
000230 32 f9 4d bf bb fe 1e bf c1 ff ab be 38 94 5d bc
       -0.80458367 -0.6210744 -0.33593562 -0.013524108
000240 d1 63 15 bf cf 10 fe 3d 63 91 d0 be 77 3c aa be
       -0.5835543 0.1240555 -0.4073592 -0.33249256
000250 97 f0 28 3d 1a e1 50 3f d5 a3 03 bf 9d 39 42 bc
       0.04124507 0.8159348 -0.5142186 -0.011854556
000260 b9 a4 a8 3e 8a e6 f0 3d d6 7e 80 3e 6a 6a b2 bf
       0.32938173 0.11762722 0.25096768 -1.3938725
000270 ee 77 d6 3e 2c e8 d3 bc 48 ad f4 3d de 7d 99 3e
       0.41888374 -0.025867544 0.11947113 0.29978842
000280 eb e3 1e bf bb 16 5c 3d 95 ac 31 bf f1 e4 85 bf
       -0.62066525 0.053732615 -0.69403964 -1.0460492
000290 70 60 b3 be 66 a8 16 bf a3 d6 6f 3c 81 e3 e5 be
       -0.35034513 -0.58850706 0.014638576 -0.44900134
0002a0 9f c0 2d 3f 5d 32 7d c0 ea 64 ec be 51 1f ac bf
       0.6787204 -3.956199 -0.4617074 -1.3447057
0002b0 c8 c0 e1 3e 88 f1 c7 be b3 23 97 3e f3 b3 05 3f
       0.44092393 -0.3905146 0.29519424 0.52227706
0002c0 7a 9e db 3e b0 b0 a6 bf 3b 18 1f 3d ae 9c 93 3f
       0.42894346 -1.3022671 0.038841467 1.153219
0002d0 bb d7 a8 be 77 fa a7 bd 5b 66 f0 3d 4e 15 e7 3e
       -0.3297709 -0.08202069 0.11738273 0.45133442
0002e0 9f 0c 02 bf c5 64 1d be f7 1f 40 bd 1e dc 13 be
       -0.5080051 -0.15370472 -0.046905484 -0.14439437
0002f0 07 43 60 3c 9f a2 35 3f 5a a3 f3 3e aa 1d 03 3f
       0.013687856 0.70951265 0.47585565 0.5121714
000300 10 8a 88 3e 38 a2 17 be 19 e5 bd 3f 93 99 21 40
       0.26667833 -0.14807975 1.483554 2.5249984
000310 2a 1f 8c bf 44 df 9f 3e 64 63 e0 be 36 5f ff be
       -1.094701 0.31225026 -0.4382583 -0.49877328
000320 a2 d0 0a bf 7f 8e 39 bd c3 5c a4 bd 7a 08 5c 3e
       -0.542246 -0.04530191 -0.080255054 0.21487609
000330 b8 62 38 be b4 bb 2a bf 91 98 ff 3e 20 46 70 3e
       -0.18006408 -0.6669266 0.49921086 0.2346425
000340 66 b6 88 3e 05 06 5a 3e 63 9d bc 3e 5b 51 ce 3e
       0.2670166 0.21291359 0.36838827 0.40296444
000350 2d 1e 0a bf 50 a5 ce be f2 90 3b be 2d 8e 0b 3e
       -0.53952295 -0.40360498 -0.18317011 0.13628455
000360 44 1c a0 bd e0 d1 1a bf c9 d1 8e bf f4 6d 86 bf
       -0.07817891 -0.60476494 -1.1157771 -1.0502305
000370 b0 77 7b 3f 29 b1 13 be e3 4c 59 3d 2a 46 9a bd
       0.98229504 -0.1442305 0.05305184 -0.07532914
000380 87 9f 4d bd 6b 2d 91 bd 27 31 84 3e 50 38 fa be
       -0.050200965 -0.07088741 0.2581875 -0.48871088
000390 93 f8 d1 3f 2a c0 61 3f 02 0d 07 3e 39 bd d1 bb
       1.6403984 0.88183844 0.13188556 -0.006400731
0003a0 5b 16 4a 3d 59 45 66 3e 18 8d 7b 3e 1e ad 4f bf
       0.049337726 0.22487392 0.24565542 -0.8112353
0003b0 3a 20 27 3f b0 f7 8c 3d ea de ca be ef 65 20 3d
       0.6528355 0.0688318 -0.39623195 0.03915971
0003c0 96 38 fb be c0 44 95 3e e0 6b 48 bf 22 a8 0f 3f
       -0.4906661 0.29154015 -0.78289604 0.56115925
0003d0 da be 7a 3f 39 32 e8 bd 67 5c 5f be 10 81 12 3e
       0.97947466 -0.11337704 -0.21812592 0.14307046
0003e0 94 5a 4f 3f 50 3c f1 be 50 f7 b4 3e 46 bd c0 be
       0.80997586 -0.47116327 0.35344934 -0.37644404
0003f0 9b 91 45 3f 4e aa 31 be 47 9b a3 bd 4e 61 fb 3e
       0.771753 -0.17350122 -0.07988601 0.49097675

fc1.bias f4 [64]
000000 cc 25 ff 3e a9 02 07 3f 3c 71 b3 bd b6 ed 41 be
       0.49833524 0.52738434 -0.08761832 -0.18938336
000010 d8 a3 b8 bc 51 5a 4d 3e 87 2a 4e 3f 38 52 21 3f
       -0.022539064 0.20053984 0.8053364 0.6301608
000020 88 f9 ab 3d fb f4 7c 3f e8 9a f7 3e e9 be 7d be
       0.08397204 0.9881131 0.48360372 -0.24779858
000030 a5 3e 5d 3e 0c a5 fb be 1b 65 9b be 82 09 1b be
       0.21605928 -0.49149358 -0.30350575 -0.15140346
000040 1c f1 94 bd cd 1d a6 3e f7 0f a2 3e ba 49 65 3f
       -0.072725505 0.3244461 0.31652805 0.8956562
000050 3f 65 d3 3e c5 69 d3 3e 1f 85 d4 be ec d3 e0 3e
       0.41288182 0.41291633 -0.41507813 0.43911684
000060 65 69 28 3f 2d 00 08 3e 0e d5 5f bf 4c 39 d4 be
       0.6578582 0.13281317 -0.8743447 -0.41449964
000070 1b c2 85 bc c0 99 78 3d af ae 02 3f 7b 47 66 3c
       -0.016327908 0.060693502 0.51047796 0.014055128
000080 06 f5 45 bf a5 e5 95 3e 57 a0 83 be 23 74 b8 3e
       -0.77327 0.29276767 -0.25708267 0.36026105
000090 4b f2 07 3e c2 18 b9 3d 5a 63 85 3d 6f 2b 86 be
       0.13276021 0.09037925 0.065130904 -0.26205012
0000a0 d3 1f 54 3e f5 94 68 3f 2d 74 10 3f b9 ff eb 3e
       0.20715265 0.9085229 0.5642727 0.46093538
0000b0 73 07 b3 3d 4c a0 4e 3d bf e5 3a 3d 3f 2e 76 3e
       0.08741655 0.05044584 0.04562926 0.24041079
0000c0 e7 51 e8 be f3 92 c5 be 9e 0f f1 3c 81 a7 c4 3e
       -0.45374987 -0.38588676 0.029426392 0.38409045
0000d0 23 06 e5 3e f2 33 06 be 7b 0b bd 3e 54 06 c0 3c
       0.44731244 -0.13105753 0.3692282 0.023440517
0000e0 8c 8f d9 bd 07 63 97 be 71 42 31 3f b8 01 d7 3e
       -0.106230825 -0.2956774 0.69242007 0.419935
0000f0 27 b9 89 3d 71 a5 57 be 4c 74 9f be 02 2d 0c 3d
       0.06724768 -0.21059205 -0.31143415 0.03422261

fc2.weight f4 [64, 64]
000000 5c 4b 16 3e d6 e0 a3 3e b5 02 e4 3e 93 92 b7 3f
       0.14677185 0.32007474 0.44533315 1.4341606
000010 9a 88 09 3f 84 68 b5 3e ae e0 a7 3d dd 3b 15 bf
       0.5372406 0.35431302 0.08197151 -0.5829447
000020 ac 1c 27 be f0 2e 93 3e a6 33 88 3e b3 54 c4 3e
       -0.16319531 0.28746748 0.26601905 0.3834587
000030 ff 6a 21 3f 7f f1 73 3f 0d 29 bb be 89 5f 6f 3d
       0.6305389 0.9529037 -0.36554757 0.05844072
000040 39 f1 42 3e 1f ec c6 3d 7a 0e bc 3e f0 06 69 3d
       0.19037332 0.09713005 0.36729795 0.05689138
000050 6d b3 21 3f 7f cd 96 be d0 bc 25 3f 70 8f d0 3e
       0.63164407 -0.29453656 0.6474123 0.40734434
000060 e7 d4 07 bf 94 72 0c 3e 5d c2 c5 3d ee 72 6a 3f
       -0.5305924 0.13715583 0.096562125 0.9158162
000070 32 70 1d 3f f8 41 b3 3e 3a 20 34 3e 38 14 fb 3e
       0.6149932 0.35011268 0.17590418 0.49038863
000080 6e bb c9 3e a4 1b da 3e 3b b5 0c 3f 28 c6 08 3f
       0.3940081 0.42599213 0.54964036 0.5342736
000090 2d 42 9b bf 7d 45 1f 3e cb 1a cf 3d 94 22 f5 3d
       -1.212957 0.15553851 0.10112532 0.11969486
0000a0 7d 96 af 3d 32 66 1d 3e 66 24 4b 3e 83 5b c7 3e
       0.08573625 0.15371016 0.19838104 0.38937005
0000b0 83 7f 14 3e 40 68 69 3f b2 f6 d7 3e 30 f6 a0 3e
       0.14501767 0.911747 0.421804 0.31437826
0000c0 14 e9 81 be 72 8a ba be 99 50 4a bf 3b c2 e1 3e
       -0.25373137 -0.3643375 -0.7902923 0.440935
0000d0 61 8b 3c bf 57 82 1a 3f a4 80 15 bd af b2 6f bf
       -0.73650175 0.6035513 -0.036499634 -0.93632025
0000e0 59 17 33 3f a3 c2 c7 3e 1b f7 08 be 9f d6 b4 be
       0.699575 0.39015684 -0.13375513 -0.35319993
0000f0 5c 71 ae bd 95 45 1c 3f 9e 5a 22 3f d8 53 0e 3f
       -0.08517715 0.61043674 0.6341952 0.55596685
000100 09 8b 08 3e 4a a9 a4 bd bd 85 ea 3c 6e 43 64 3f
       0.13334288 -0.08040102 0.028628225 0.8916539
000110 1c 3b 07 3f 15 e4 52 bd a9 f6 57 3d 3c 25 9f be
       0.5282457 -0.051487047 0.052725468 -0.31083095
000120 ae f5 cb 3e 1a 77 5b be 27 a9 e3 bd fd 40 d2 3e
       0.39835876 -0.21432152 -0.111162476 0.41065207
000130 0d 28 5b bc 06 94 fb 3e 06 47 1c 3e ef 7b 12 3e
       -0.013376248 0.4913637 0.15261468 0.1430509
000140 cd 1c 0a 3e cb 86 f2 3c ee 97 82 3e c0 08 c6 bc
       0.13487549 0.02960529 0.25506538 -0.024174094
000150 c5 99 fa 3e 18 c9 34 bf 16 ae 02 bf 0c 3b 06 3c
       0.48945442 -0.70619345 -0.51046884 0.008192789
000160 f9 fa f6 bc 28 c8 7a bc 47 51 ee 3d 68 2d 53 be
       -0.03014897 -0.01530651 0.11636596 -0.2062279
000170 1f b1 06 3f 96 da 72 3e 34 f5 d9 3e 84 40 07 3f
       0.52614015 0.23716196 0.42569888 0.5283282
000180 c2 35 02 3f 4b 55 c4 3e 93 07 90 3e 13 18 8e 3e
       0.5086328 0.38346323 0.2813078 0.27752742
000190 0a 32 7d bf b0 06 93 3e 87 b4 8d be 9e d1 3c bf
       -0.9890448 0.2871604 -0.27676794 -0.7375735
0001a0 f5 15 12 3e 26 d7 6d 3d d9 51 1a 3e 06 05 47 3e
       0.14266188 0.05806651 0.15070285 0.1943551
0001b0 69 06 61 3e 1e 3d 41 3f f6 b6 f3 3b 54 50 04 be
       0.21975102 0.7548388 0.007437582 -0.12921268
0001c0 f9 e4 2f be ec 69 d9 3e a7 77 49 bf 9b 41 07 bd
       -0.1717719 0.42463624 -0.786982 -0.03302155
0001d0 0b ac 8e bc f9 b3 88 3f de bf df 3d ca 5a 27 be
       -0.01741602 1.0679923 0.10925268 -0.16343227
0001e0 57 cb a5 3e eb 99 3f 3f b3 f9 50 3d 6b d2 2f 3e
       0.32381698 0.74844235 0.05101938 0.17170112
0001f0 62 42 be be b9 ed 08 bf 40 0c 62 bf 90 a4 00 3f
       -0.3716002 -0.53487736 -0.8829994 0.502511
000200 10 e0 ea 3d 90 16 88 3d 2b b2 9c 3e 7e b7 c0 bf
       0.11468518 0.066449285 0.3060468 -1.5055997
000210 91 76 96 bd bd a7 9e 3e 7e a7 1b 3e 0b 80 1e bf
       -0.073468335 0.3098735 0.15200612 -0.6191413
000220 81 a2 ad be fd 87 a8 3e ee 20 15 3d ba 1d 9f bc
       -0.33913043 0.3291625 0.036408357 -0.019423354
000230 21 a8 1c 3f f5 1e bf 3e f3 a5 0f bf 52 f6 8b bd
       0.61194044 0.37328306 -0.56112593 -0.06834091
000240 58 26 8c 3e a4 09 b2 3e f2 0f 02 3f 08 02 a2 bd
       0.27373004 0.3477298 0.5080558 -0.07910544
000250 43 8a ee 3e 44 92 a4 bf e7 f7 b8 bf 71 fd 7d 3e
       0.4658986 -1.2857137 -1.4450654 0.24803711
000260 08 2c 0c bf 7b c6 4f 3e f6 98 97 3e 41 b4 91 bd
       -0.54754686 0.20290558 0.29608887 -0.07114459
000270 57 23 05 be df 99 b7 bd 3e c0 c0 3e 76 aa 55 3b
       -0.13001762 -0.089648955 0.3764667 0.0032602823
000280 8b 7d 7c 3e 70 51 a6 3e d0 86 90 3d ae 9b 9c 3e
       0.24657266 0.32484007 0.070569634 0.30587524
000290 88 fd 55 bf bf 13 32 3f 05 3c a2 be b9 4a c8 be
       -0.83589983 0.6956138 -0.31686416 -0.3911951
0002a0 5d e1 ff 3e 99 b1 ef 3d dc c0 66 3e bd 3b e7 3e
       0.49976626 0.11703796 0.22534508 0.45162764
0002b0 52 dc 69 3e 38 fb 29 3f 3f 4d 5c 3e 1d 4e 8f 3e
       0.22837952 0.66398954 0.21513842 0.27989283
0002c0 5c 38 a5 be 22 d5 17 be 10 ad 93 bf e1 46 49 3f
       -0.3226956 -0.14827397 -1.153719 0.7862378
0002d0 93 33 6d bf 21 fe 6f 3f ea b0 e7 bd 36 5b 9b bf
       -0.9265682 0.93747145 -0.113130406 -1.213721
0002e0 c1 c5 66 3e ef 2d 19 bf 95 cf 71 3b 35 89 79 bf
       0.22536375 -0.59835714 0.003689741 -0.97474986
0002f0 e4 c3 5f be 9e 49 23 3e b4 d3 dc 3e e3 0a aa 3e
       -0.2185207 0.15946051 0.43130267 0.3321143
000300 27 c4 21 3e a7 8c 14 be 55 68 04 3f d5 29 36 3f
       0.15797482 -0.1450678 0.517217 0.7115758
000310 38 ad ea 3e d3 35 e6 3c 5d b8 04 be 9d 71 88 be
       0.4583528 0.028101837 -0.12960954 -0.2664918
000320 3b 32 cc bd 44 02 a1 bd 06 c4 3e bd ac 0d 9b 3e
       -0.09970518 -0.0786176 -0.04657366 0.30283868
000330 f3 4c d8 3e 98 4a af 3f 12 1a 59 be 05 3d 43 3e
       0.42246208 1.3694639 -0.21201351 0.19066246
000340 4a b5 be 3e aa 43 6b 3e 66 1e 0f 3f 59 4d 4b 3d
       0.37247688 0.2297503 0.5590576 0.04963431
000350 50 1e eb 3e de d4 23 bf 43 9f 2c 3f 81 db c8 3e
       0.45921564 -0.63996685 0.67430514 0.39229968
000360 b6 ec b0 be cd 6d 5c 3d ee da 02 3e 2c dd bd 3e
       -0.34555596 0.05381565 0.12778828 0.37082803
000370 4e 9f fe 3e 26 89 bd 3e ad 79 b7 3e a1 55 82 3e
       0.49730915 0.37018698 0.3583502 0.25455955
000380 65 8d aa 3d e6 1b a3 3e 32 49 00 3f f9 3b 8b 3d
       0.0832775 0.31857222 0.5011169 0.06798548
000390 b8 c1 50 bf 7b 52 e0 3e f2 70 8c 3d cd c6 2c bd
       -0.8154559 0.43812928 0.0685748 -0.04218178
0003a0 99 2c 9d 3e b5 db 77 3b 11 9c 11 3e 1f 1e 80 3e
       0.30698088 0.0037820165 0.14219691 0.2502298
0003b0 15 3b a7 3e bc 80 dd 3e 20 6b 8d 3e d3 00 aa 3d
       0.32662264 0.4326228 0.27620792 0.083009385
0003c0 c8 90 81 be 03 ef bc be cf 10 ab bf 25 aa af 3e
       -0.25305772 -0.369011 -1.3364505 0.34309497
0003d0 a2 e4 30 bf a5 89 8c 3d 9c 0f 26 3e 78 a3 ca bf
       -0.69098866 0.06862191 0.16216892 -1.5831137
0003e0 40 2d 78 3f 06 a5 3a 3f 2e ab 27 be bb 14 b4 be
       0.96944046 0.72908056 -0.16373894 -0.35172066
0003f0 f3 f9 de bd 8d 77 f3 3e 7b 3f c9 3e 34 7c 15 3f
       -0.10887518 0.47552148 0.39306244 0.58392644

fc2.bias f4 [64]
000000 c5 de bd 3c 65 f9 45 be b1 5d f6 3b 20 e9 ea bd
       0.023177514 -0.19333418 0.007518493 -0.11470246
000010 65 f4 e2 3c 9d f2 20 3d 6b 41 48 3e 65 a8 04 3f
       0.027704427 0.039293874 0.19556205 0.5181945
000020 68 11 6f bc c6 1b 80 3e f0 b1 36 be 60 b2 12 3f
       -0.014591552 0.2502119 -0.17841315 0.5730343
000030 e5 67 98 3e 5b d4 4d 3f 22 ae 5b 3e 1a 9a 2c 3d
       0.29766765 0.80402154 0.21453145 0.04213915
000040 27 f2 07 3f 3d dd dc bd 42 2c 15 3f 0d 04 54 bd
       0.5310387 -0.10784385 0.5827066 -0.051761676
000050 ee a4 9f bc 6f a9 34 3f cd 25 2c 3e 9e c6 01 be
       -0.019487824 0.70571035 0.16811295 -0.12673423
000060 42 61 a0 3e df ce 0c 3e 2f 87 20 3c ec 28 06 bd
       0.31324202 0.1375079 0.009797855 -0.03275387
000070 3e 6c 26 3c 1d 7e b3 bb c1 58 b3 3e 2c 1f f4 3e
       0.010157643 -0.0054776804 0.3502865 0.47680032
000080 f1 d8 18 be 96 dd e6 3e 31 73 03 3e c1 b8 42 bd
       -0.14926507 0.45090932 0.12836911 -0.047539476
000090 23 c4 16 bd e4 07 a5 3d 72 4c 49 3c ae 65 87 3e
       -0.036808144 0.08058146 0.012286292 0.26444763
0000a0 4a 92 01 3f 24 ca 25 3e d0 e0 32 be 32 26 9a bd
       0.50613844 0.16190392 -0.17468572 -0.075268164
0000b0 15 e0 17 3f a0 7c 38 3d 1d 73 cb 3c 93 2b d3 bc
       0.593263 0.045040727 0.024835164 -0.025777614
0000c0 fe 23 38 3d 27 9e 35 3c c6 e5 0a 3e 9b da 43 be
       0.0449562 0.01108507 0.13564214 -0.1912636
0000d0 ce 80 d7 3e 7c e1 0b be bc ce c8 bc 84 43 87 bd
       0.42090458 -0.13660234 -0.024512641 -0.066046745
0000e0 26 f6 e6 bd fc ae 42 3f 53 78 9a 3d 43 b5 cb bb
       -0.11277418 0.76048255 0.07542481 -0.0062166764
0000f0 2e 5b 0d 3e 4a cc c0 3e 27 6b 0e bd 5a 14 3e be
       0.13804314 0.3765586 -0.034770157 -0.18562451

fc3.weight f4 [4, 64]
000000 95 5a a1 be e0 79 13 bf b9 30 60 bf f3 d1 fb be
       -0.3151442 -0.5760784 -0.87574345 -0.49183616
000010 cb 20 5f be 4c ea 42 bf de eb 7b bf f1 32 f5 3f
       -0.21789853 -0.7613876 -0.9840678 1.9156171
000020 db 3f 97 bf 51 5d 19 40 61 9b 37 bf f9 14 36 40
       -1.1816362 2.3963206 -0.71721464 2.84503
000030 95 89 1f 40 45 c1 fe 3f 4f ad cc be b8 68 8c be
       2.4927723 1.9902731 -0.39975974 -0.27423644
000040 b8 8b fa 3f d2 b9 8c be 05 99 59 40 84 e7 d2 3c
       1.9573889 -0.2748552 3.3999646 0.02574516
000050 ab 32 81 be 7c 06 1f 40 b0 92 45 be b1 33 10 bf
       -0.2523397 2.4847708 -0.19294238 -0.56328875
000060 91 fa 6a be 2c 81 15 40 79 5d 0c bf d0 e3 ae 3d
       -0.22947146 2.336009 -0.5483013 0.085395455
000070 77 a2 cd be 06 18 61 be 1a ba 67 3e 5c 94 14 40
       -0.40163013 -0.2198182 0.22629586 2.3215551
000080 e7 b6 1f bf 63 e2 14 40 5c 16 0a be 9f a3 00 bf
       -0.6238846 2.3263175 -0.13485092 -0.50249666
000090 a6 11 94 be 46 70 bf 3f d4 e5 97 bf 77 bb 35 be
       -0.28919715 1.4956138 -1.1867013 -0.17747293
0000a0 62 40 a2 3f d3 ef 9d be d1 cd ca be 04 5d 1d bf
       1.2675898 -0.30847034 -0.3961015 -0.61470056
0000b0 77 72 a3 bd 6d 69 39 bf aa 91 48 be 8a b0 19 bf
       -0.07980817 -0.7242649 -0.19586816 -0.60035
0000c0 70 3a cf be e9 96 9e bf b1 02 60 be e6 e8 1b bf
       -0.40474272 -1.2389804 -0.21876027 -0.6090225
0000d0 6e 2a 41 bf 3b 00 71 bf b6 b2 24 bf 30 43 57 be
       -0.7545537 -0.94140977 -0.6433519 -0.21021724
0000e0 f0 8e ab be 0c 5d 14 40 81 4b 89 be 8f 91 2b bf
       -0.3350749 2.3181791 -0.26815417 -0.6701898
0000f0 77 a0 81 bf bf 59 e8 3f 83 66 00 bd 39 a9 0c bf
       -1.0127095 1.8152388 -0.031347763 -0.54945713
000100 46 f2 cf be b8 c1 0c bf 49 b3 0f bf 8a 64 99 be
       -0.40614527 -0.5498309 -0.5613294 -0.29959518
000110 7c 4c d7 be ed aa 01 bf 9c ba 78 bf 88 7a f2 3f
       -0.4205054 -0.5065144 -0.97159743 1.8943644
000120 4b ce ad bf d1 65 1b 40 6c b8 4e be 30 d5 46 40
       -1.3578581 2.4280894 -0.20187539 3.106762
000130 d0 34 67 40 df 75 1e 40 2f d7 91 bf e8 bc 60 be
       3.6125984 2.4759443 -1.1393794 -0.21947062
000140 4d bf 0e 40 1c e5 3c be 09 19 1e 40 da 6e 1f bf
       2.230426 -0.18446773 2.470278 -0.6227852
000150 21 f2 9b be e4 72 12 40 e0 f4 30 bf 41 05 6c be
       -0.30458167 2.2882624 -0.6912365 -0.23048879
000160 a0 25 45 be aa cb 17 40 d4 c7 67 be e0 a8 a6 bb
       -0.19252634 2.3718057 -0.22634822 -0.0050860494
000170 5d 53 b2 be ca c9 93 be 99 92 04 bf f6 6a 1e 40
       -0.34829226 -0.2886489 -0.5178619 2.4752784
000180 2f 43 e5 be a6 83 da 3f 55 de 87 be f0 7e 83 be
       -0.4477782 1.7071426 -0.26536813 -0.25682783
000190 fa 3e d7 be bf 09 f5 3f 32 32 5a bf 66 1d 59 be
       -0.42040235 1.9143599 -0.8523284 -0.21202621
0001a0 cc 74 fd 3e 92 d9 e3 be 5b 6a 9d be 4a 5e ab bf
       0.4950317 -0.4450193 -0.30745205 -1.338815
0001b0 3c e9 9f 3e 53 d7 38 be e9 c5 bd be 4c d7 98 be
       0.3123263 -0.1805089 -0.37065056 -0.29851758
0001c0 66 59 6e be 7a 6e 51 be ea db e4 be 0c a4 fb be
       -0.2327629 -0.204523 -0.4469903 -0.49148595
0001d0 92 18 cc bf de 6b 1d be cf 13 1a be a9 12 d0 be
       -1.5944998 -0.1537318 -0.15046619 -0.40639237
0001e0 e6 f7 a4 be dd c6 15 40 2d 3a f4 be e8 9e 9f be
       -0.32220381 2.3402627 -0.47700635 -0.31175923
0001f0 98 a7 5e bf 67 7f 46 40 80 81 b2 be 11 3a d2 bd
       -0.8697448 3.101526 -0.34864426 -0.102649815
000200 1c cb a4 be 36 7d 0f bf 73 b6 6b bf 5b 2a 2c bf
       -0.3218621 -0.5605043 -0.9207527 -0.6725213
000210 07 f5 29 bf c1 3c e3 be a0 f0 5a bf c2 e5 db 3f
       -0.6638951 -0.4438229 -0.85523415 1.7179492
000220 ad e1 47 bf 85 14 1e 40 3d 47 13 bf 15 6e 41 40
       -0.7807873 2.4700024 -0.57530576 3.0223439
000230 05 3b 0f 40 4c 37 00 40 b3 85 0b bf e3 2f 15 bf
       2.2379773 2.003375 -0.54500884 -0.58276194
000240 5e 1d bc 3f 2e 6d b3 be 46 2f 26 40 aa ac ce bf
       1.4696462 -0.35044235 2.5966353 -1.6146443
000250 fb 89 ef be f9 f6 e5 3f 17 d3 1f bf 09 a2 27 bf
       -0.46784958 1.7965995 -0.6243147 -0.6548162
000260 1e b1 c8 bf fc 6c ec 3f ec a4 e3 bd 80 d8 26 3c
       -1.5679052 1.8470759 -0.11115441 0.010183454
000270 08 02 6f be e2 8c 9d be 8d 7e 36 3f 85 d0 28 40
       -0.23340619 -0.30771548 0.7128685 2.637727
000280 ff 1e 22 be 65 74 16 40 6d 43 b8 be e7 76 bc be
       -0.15832137 2.3508542 -0.35988942 -0.36809465
000290 eb 36 50 be 0d 97 d9 3f 5f 34 64 bf e4 4e 36 3f
       -0.2033345 1.6999222 -0.8914241 0.7121413
0002a0 ea f7 7b 3f 69 04 0e be b4 81 1d bf 1b 3f fa 3e
       0.9842516 -0.1386887 -0.61526036 0.4887627
0002b0 b8 54 9f 3e 3d d4 ab 3d cb 7f 2e bf a1 ad 19 bf
       0.31119323 0.083900906 -0.68163747 -0.6003056
0002c0 e4 47 47 be 91 40 44 bf 77 7c 1b be 72 49 14 bf
       -0.19461018 -0.7666102 -0.15184198 -0.5792457
0002d0 6b 6e 7d bf 29 c5 07 bf b9 20 32 bf 91 75 28 bf
       -0.9899661 -0.5303522 -0.6958118 -0.6580439
0002e0 70 51 03 bf 77 57 04 40 d5 f1 be bd a7 26 ea be
       -0.5129614 2.0678384 -0.093234695 -0.45732614
0002f0 10 40 d4 be c7 26 1a 40 e8 49 4f bf e3 7f 18 bf
       -0.41455126 2.4086168 -0.80972147 -0.5957014
000300 e2 5b 8a be 21 2e 2c 3e 9a b4 5d bf 23 20 2f be
       -0.27023226 0.16814472 -0.866037 -0.17102103
000310 e2 27 d5 be 48 a7 b5 bc ed 48 5c bf 46 83 fc 3f
       -0.4163199 -0.022174492 -0.86048776 1.9727561
000320 1a df 1f bf cb 02 28 40 10 ac 02 bf e9 5e 50 40
       -0.624498 2.6251705 -0.51043797 3.2557929
000330 2c 7f fe 3f 4d d9 0e 40 91 d6 a4 bf 68 95 0e bf
       1.988256 2.232013 -1.287798 -0.55696726
000340 4e 41 fd 3f 16 fd ca be de 00 99 40 11 29 ff 3b
       1.9785554 -0.39646214 4.781356 0.007786878
000350 28 86 9a be 71 3e 0c 40 10 6f 0c 3e 6d 40 bd be
       -0.30180478 2.1913111 0.13714242 -0.36963215
000360 06 22 23 bf 56 d6 f8 3f 1a e7 36 bf 66 91 9f 3d
       -0.6372379 1.944041 -0.71446383 0.077914044
000370 f6 68 e8 be 5c c7 c8 be 83 76 07 3d bc 5c 06 40
       -0.4539258 -0.392146 0.033072006 2.09941
000380 b0 10 f9 be a1 d9 24 40 bb 22 05 bf 99 c9 be be
       -0.48645544 2.575783 -0.5200612 -0.37263182
000390 3c 73 e6 be 9d dc d1 3f 01 a7 50 bf 2d 2c 01 be
       -0.45009792 1.6395451 -0.8150483 -0.12614508
0003a0 30 92 d4 3f cb d8 d9 be 96 c0 74 be 2c d5 af be
       1.6607113 -0.42548212 -0.2390159 -0.34342325
0003b0 95 a1 49 bf 01 aa 0e bf 11 fd f1 be 5a d5 83 be
       -0.7876218 -0.55728155 -0.47263387 -0.25748712
0003c0 a6 2c f4 be 2c 1f ef be e1 f7 f2 be 90 9e 1f be
       -0.47690314 -0.4670347 -0.47454742 -0.1558783
0003d0 d0 0a a8 bf 50 8b ad be 0d bc 0f bf dd 77 c8 be
       -1.31283 -0.3389535 -0.5614632 -0.39153948
0003e0 c3 ea 11 be bc 5b 12 40 78 55 e5 be 26 b5 17 bf
       -0.1424971 2.286849 -0.4479177 -0.59260786
0003f0 0c ab 76 bf 57 7c cc 3f 44 fe c6 be 46 7e 92 be
       -0.96354747 1.5975446 -0.38865864 -0.28611964

fc3.bias f4 [4]
000000 6c 7e de 3e 5d 29 c7 bb d0 79 4c 3e e1 b0 16 be
       0.43455827 -0.006077929 0.19968343 -0.14715911
